Assets/config/results/FourthTime/agent.onnx (onnx, 216509 bytes, 11 tensors)

action_model._continuous_distribution.log_sigma f4 [1, 3]
000000 ee 7f 8c bd 11 f0 af bd c9 fd b4 be
       -0.06860338 -0.08590711 -0.35349873

action_model._continuous_distribution.mu.bias f4 [3]
000000 ba 77 5a bd 6c ca 53 3d ea 99 0b bd
       -0.053336836 0.051706716 -0.03408233

action_model._continuous_distribution.mu.weight f4 [3, 128]
000000 81 d8 81 3a 1f 85 79 3d e2 12 0d bd 48 98 67 bd
       0.0009906442 0.06091797 -0.034441836 -0.05654171
000010 d0 67 0d 3d cd dc 6b 3c 63 c5 48 bd 39 f6 1a 3d
       0.03452283 0.014395905 -0.049016368 0.037832472
000020 e2 3d 4d bd fb 50 90 3d 52 3c af bc b8 e1 b5 3d
       -0.050107844 0.07046696 -0.021391068 0.08880943
000030 9f 61 b1 bd 7a 39 f6 bc cc 8e ce 3c fe 03 91 3c
       -0.08661198 -0.030056704 0.025214575 0.017702099
000040 3a e4 7c 3d 83 c6 56 bc 29 69 49 3a ce a9 35 3d
       0.06174109 -0.013108852 0.00076832116 0.04435139
000050 a5 0c b9 bc d2 81 29 bc 79 96 4f bd bf f7 40 3c
       -0.022589037 -0.010345893 -0.05068061 0.011777817
000060 6f 84 a3 3d 21 de 9c 3d 89 ae 78 3d e2 da 5e 3d
       0.07984244 0.07659555 0.060713325 0.05440796
000070 33 14 66 3c de b5 0c bb 09 92 85 3c 27 92 8d 3d
       0.014042902 -0.0021470706 0.016304987 0.06912642
000080 2f ae 59 3d 8b 58 04 3c df d2 97 bc b1 8c 0d 3d
       0.05314463 0.008077751 -0.018533168 0.034558002
000090 1b fe 1c 3d fa 63 bb ba 0e 08 1c bd 82 c0 c6 3b
       0.03832827 -0.0014296763 -0.03809362 0.006065429
0000a0 08 f5 92 3d ec 52 b8 bc 64 9f 63 3d c9 55 cc 3d
       0.07175642 -0.022500478 0.05557193 0.099773
0000b0 b7 f8 87 bd d6 2b a1 bc ef a4 a4 3c d1 71 bf 3c
       -0.066392355 -0.019674223 0.020098178 0.023369702
0000c0 58 9e a4 3d 92 34 5a bc 88 3d 51 bd 20 fe 35 bd
       0.08038014 -0.013318198 -0.05108407 -0.044431806
0000d0 d7 2b 61 bb 44 de 3f bd ee 8e 19 bb d1 47 0a 3e
       -0.0034358406 -0.04684283 -0.002343114 0.13503958
0000e0 c5 d2 84 bc d7 c0 24 ba a7 7c 8e bc 8c 27 48 bd
       -0.016213784 -0.0006284839 -0.017393423 -0.04886584
0000f0 e2 43 fd bc e9 6a 36 bd 2e 0d 33 bd 8a ce 38 3d
       -0.030916158 -0.04453555 -0.04371374 0.045118846
000100 27 62 62 3d 88 d6 71 bd 38 9a 1b 3d 39 75 0b bd
       0.055269387 -0.059042484 0.03798887 -0.03404734
000110 9b e9 c5 3d 94 4b 86 bc 96 16 71 bc e4 4a 76 bd
       0.09663697 -0.01639346 -0.014714858 -0.060130015
000120 e4 01 21 3d a2 75 a6 bc bb a0 fe 3b 7e d9 50 bd
       0.039308444 -0.020319764 0.0077706254 -0.050988667
000130 7a c0 58 3d 3c 04 10 bd 42 66 82 3c 46 9b b5 bc
       0.052917935 -0.03516029 0.015917901 -0.022168767
000140 21 ed 45 3c e3 d6 8b 3d 96 cc 1a bd 55 fb 88 3d
       0.012080462 0.06828096 -0.037792765 0.06688563
000150 0c d0 8d bd b4 b1 b8 bc 8e 91 0c 3d 9d c3 16 3c
       -0.069244474 -0.022545673 0.0343185 0.009201911
000160 94 fd ac bc 4c a5 63 bd 65 9e 8f bb 37 11 d1 3d
       -0.02111701 -0.05557756 -0.004382896 0.102083616
000170 ec a6 0a bd b1 47 22 3c 60 f0 2c bd 9f 42 58 3d
       -0.033850595 0.009904788 -0.042221427 0.05279791
000180 50 6c d3 bc 2c 0a f4 bc e8 64 c6 3c cc 73 15 bd
       -0.025808483 -0.029790007 0.024218038 -0.036487386
000190 4b 83 02 bd b7 ac 92 3d 97 d5 02 3c 32 3c a7 bc
       -0.031863492 0.07161849 0.007985494 -0.020414446
0001a0 2b eb 31 bd 59 3f 93 bd 0d bc a1 3d b7 5a fa bb
       -0.043437164 -0.07189817 0.07897196 -0.0076402086
0001b0 17 43 0f bd 89 38 32 3d d3 8a 8a 3d d0 1f da bc
       -0.03497609 0.043510947 0.0676476 -0.026626498
0001c0 dc a5 96 3b 60 f3 a6 bc 39 e0 29 3c f7 9e 79 bd
       0.0045974087 -0.020379722 0.0103684 -0.060942616
0001d0 8d fa 1c bd b5 73 ce bc fe c3 a7 3c d0 13 a3 3d
       -0.03832488 -0.025201658 0.020479199 0.07962763
0001e0 90 d6 d7 bc 92 aa db bb 1f 7a 92 3d 4b 31 1c 3d
       -0.026347429 -0.006703683 0.07152199 0.038132947
0001f0 30 03 1e 3d e3 7e 1d 3c 9a 0a 43 bd 18 5e 6d 3d
       0.03857726 0.009612772 -0.047617532 0.057951063
000200 dc e9 0e bd 0d bd 01 3d f4 4b 60 3d 6c 09 9b bb
       -0.034890994 0.031674433 0.054759935 -0.004731348
000210 34 c8 af 3d 2e d2 6c 3d 3f 60 d8 bc bb e9 33 bc
       0.085831076 0.05781763 -0.026413081 -0.010981019
000220 5b 84 5b 3c ce 94 c1 bd a3 6a 2f bd 62 55 57 3c
       0.013398255 -0.0945221 -0.042826306 0.013142915
000230 58 52 09 3d 97 03 54 bc d6 e8 bd bd 64 60 a3 bd
       0.033525795 -0.012940309 -0.092729256 -0.079773694
000240 89 71 3c 3d 41 6f 71 bd eb 48 57 bd 56 ad 62 3d
       0.046006713 -0.05894399 -0.052559774 0.055341087
000250 3a 45 24 bd 57 45 f6 bb 58 cf 8a bc 0c 5e 59 bd
       -0.040105082 -0.00751559 -0.016944572 -0.053068206
000260 63 35 33 bd 84 be 2d 3d a3 00 9f bd 6d e3 d8 3b
       -0.043752085 0.042418018 -0.07763793 0.006618908
000270 2b 33 3f 3d 53 9d 94 bd ee 76 7e bd e6 be 09 3d
       0.046679657 -0.0725657 -0.06212514 0.03362932
000280 1e e0 50 bd 00 15 d6 bc 7e fc a7 3c 32 22 cb bd
       -0.050994985 -0.02613306 0.02050614 -0.099186316
000290 7c a6 c4 bd e5 86 6a bd 58 b4 3a bd e6 1f 4e bd
       -0.09602067 -0.05725755 -0.045582145 -0.05032339
0002a0 ee 61 a4 bd b7 29 cd bc 39 68 a3 bc 65 77 26 bd
       -0.08026491 -0.025044305 -0.019947158 -0.040641207
0002b0 1e 6c d5 bc bc dd 21 bc 22 4f 1f bd 8e 6f 46 bd
       -0.02605253 -0.009879526 -0.038893826 -0.04844623
0002c0 7f e4 66 bc 41 8a 10 3b 61 e1 3f 3d f4 e5 94 3c
       -0.014092564 0.0022055062 0.046845797 0.018176056
0002d0 79 df d6 3c b7 87 71 bd 50 08 ec b8 d3 cf c1 bc
       0.026229607 -0.05896732 -0.00011254905 -0.023658669
0002e0 13 7d 60 bb 6e 8a c9 3c 50 c7 c9 3c e4 d3 1e 3c
       -0.0034254238 0.024602141 0.024631172 0.009694073
0002f0 a7 91 3d 3b 12 6c 8b 3d 74 d9 85 bc 00 a8 34 bc
       0.0028925927 0.06807722 -0.016339041 -0.011026382
000300 b1 c9 87 3c f0 1f 4d 3d b7 1a 61 3d 5f c1 bd bd
       0.016575666 0.050079286 0.054957118 -0.09265398
000310 23 04 03 bd c7 4c 78 bd f7 56 4b 3d 48 70 ef bc
       -0.031986367 -0.060620096 0.049643483 -0.029228345
000320 ca d3 a1 bd 1e a3 f7 bb b2 1a 29 bc 63 d3 2c bd
       -0.07901724 -0.007557287 -0.010321306 -0.04219378
000330 3f a4 66 3c 50 6d 3c ba 6c fe 3b bd 4d 1d 8d bd
       0.014077245 -0.00071879197 -0.045896932 -0.06890354
000340 56 2f a4 3c 06 b0 8b bc 6d 3e 44 3d 00 62 0f bd
       0.020042103 -0.017051708 0.047911096 -0.03500557
000350 8d bf 63 3d 5e a5 95 3d 39 2a e1 3c 03 22 30 3c
       0.0556026 0.07306932 0.027485954 0.0107502965
000360 39 65 98 3c 43 f0 31 3d b9 08 63 3d 0e bf a2 bd
       0.018602954 0.043442022 0.05542824 -0.07946597
000370 0d 48 36 bc ab 74 ad bd de 51 0b bd 4e 32 4a 3d
       -0.011125577 -0.08469518 -0.03401362 0.04936438
000380 0d 08 1f bc eb af fc 3c ba 49 5b bd 13 53 d5 bd
       -0.009706509 0.030845603 -0.053537108 -0.10416236
000390 f2 16 d0 bc 1d be 5b 3c 40 5c b9 bb 59 b7 cc bd
       -0.025401566 0.013412026 -0.005656749 -0.09995908
0003a0 a9 83 8d 3d 72 fb 50 3b ef b8 a2 bc fb 3a e8 3c
       0.06909878 0.0031888154 -0.019863574 0.028348437
0003b0 15 07 14 3d 4d dc 4f bd 09 58 f6 3c 6c 32 10 3c
       0.036139566 -0.050747205 0.030071275 0.008801084
0003c0 8a 17 87 bd 49 f5 03 bd d4 bf 84 bd 22 a7 1d bd
       -0.065962866 -0.032216344 -0.06481901 -0.03848947
0003d0 e9 f1 0a 3d c3 9e 2a bd 01 be 1c 3d 3d b8 17 3d
       0.03392211 -0.041655313 0.03826714 0.037040938
0003e0 23 b5 d9 3b cf 1c 13 bd 62 28 95 3c fb f5 91 bd
       0.0066439076 -0.035916146 0.018207733 -0.07126995
0003f0 cd a5 94 bd 4f 58 b8 bd 01 65 25 bd 74 b0 f1 3c
       -0.072581865 -0.090012185 -0.040379528 0.029503085

network_body.linear_encoder.seq_layers.0.bias f4 [128]
000000 f7 ac 01 bd 10 48 94 bc e7 00 f9 bc 43 bb 69 bd
       -0.031659093 -0.018100768 -0.030395938 -0.057063352
000010 8a e0 87 bd 54 4f 42 bd 3f 70 18 bc 1c 8f 81 bc
       -0.06634624 -0.047438934 -0.009304105 -0.01581531
000020 1c dd 8f 3d da 24 27 bd 5a 62 df 3c 91 54 63 bd
       0.07024595 -0.04080663 0.027268577 -0.05550057
000030 51 e1 d1 3b a7 7c 79 bb fc b9 4c bd b7 b8 2b 3d
       0.0064050336 -0.0038068683 -0.049982056 0.041924205
000040 fd bb 10 3d 60 e6 dc 3b 0b 72 1a 3c 84 05 6e 3b
       0.03533553 0.00674133 0.009426604 0.0036319206
000050 79 a2 2d bd bb 2a 78 3b d9 ab 36 bc 9f 92 61 3d
       -0.042391274 0.0037867266 -0.01114937 0.05507147
000060 a0 6d a7 bc 4a 64 1f bd 02 ef 62 bd e5 2c d6 3c
       -0.020438015 -0.038914002 -0.055403717 0.026144454
000070 c7 e5 0e bd cf 44 75 bd 09 45 ef bc 6e 15 14 3c
       -0.0348871 -0.059880074 -0.029207723 0.009038312
000080 6e 75 2c bc 13 7f 59 bd 45 65 d6 bc 3c 42 8f 3d
       -0.010526044 -0.053099703 -0.026171336 0.06995055
000090 36 f6 59 bc 81 20 14 3c 2a 06 fc bc de 0e db 3c
       -0.01330333 0.009040953 -0.030764658 0.026740488
0000a0 b2 5d 3a 3c fa 30 66 bd 8c 82 67 bd cd af 35 3c
       0.011374878 -0.05619905 -0.056520984 0.011089277
0000b0 11 02 1d bc 90 94 e6 3c ef 8c 41 bd c7 c8 16 3d
       -0.009583012 0.028147012 -0.047253545 0.03681257
0000c0 12 b1 0b bd a7 63 03 bd 30 0f 85 3c f4 ff 07 bd
       -0.034104414 -0.032077458 0.016242594 -0.03320308
0000d0 43 0a 24 bc 4f a2 97 3c cd b0 aa bd d8 b1 71 3d
       -0.010012212 0.018510012 -0.08334503 0.059007496
0000e0 13 1e 51 3c c8 9f 27 bc ed 98 ec 3c b1 36 e0 bc
       0.012763518 -0.010230966 0.028881514 -0.027369829
0000f0 4f ca 1f bc 1b 47 09 bd d2 8a 3b 3b 90 d8 14 bd
       -0.009752824 -0.033515077 0.002861668 -0.036339343
000100 af 94 84 bc 4e 4f 24 bb 95 21 6b 3c 5e 63 83 3d
       -0.01618418 -0.0025071683 0.014351268 0.06415437
000110 94 75 30 bd e6 9d 34 bd fa da 2d bd 78 3e 1c 3c
       -0.04308088 -0.044095896 -0.04244516 0.009536378
000120 f7 62 ce 3c 0b 13 33 bd 47 f7 55 bd 2b 67 35 bd
       0.025193674 -0.043719333 -0.052237775 -0.04428784
000130 71 cb 4a 3d f4 94 37 bd 5c b9 df 3c 82 71 c0 bc
       0.049510423 -0.044819787 0.027310066 -0.023491625
000140 cf 22 d1 bc e3 05 9e 3d 07 8b 91 bc aa 7b b4 3b
       -0.025529293 0.077159666 -0.017766489 0.005507906
000150 59 78 38 3c 4d c5 a0 39 be e6 0d bd 79 98 25 3c
       0.011259162 0.0003066458 -0.03464388 0.010107153
000160 d0 18 1a bd b9 4b 70 bc ca f2 2d bd f3 5e 37 3d
       -0.03762132 -0.014666491 -0.04246787 0.044768285
000170 b3 3d 62 3d 3c 42 0a bd 7b f0 0b bd 21 ba c5 3c
       0.055234622 -0.033754572 -0.034164887 0.024136605
000180 bf 15 8a bd ff fa fd bc cf 7f 94 bc 69 a3 05 3b
       -0.06742429 -0.031003473 -0.01812735 0.002039159
000190 30 77 5e bd 81 78 8e bd ce 43 78 bc a5 6e 87 3b
       -0.054312885 -0.06956578 -0.015152885 0.004133063
0001a0 ce b3 30 3b 7f 02 48 3d 4f 85 56 bb d0 41 6d bd
       0.002696264 0.048830505 -0.0032733267 -0.05792409
0001b0 ab 3c 8a bc 3e 7c df 3c 04 24 b4 bc 4d 56 4e bc
       -0.016874632 0.027280923 -0.02198983 -0.012593818
0001c0 a2 53 22 3d 3b e6 1d 3d af 61 f1 bc 05 dc 0a bd
       0.03963054 0.038549643 -0.029465524 -0.033901233
0001d0 df aa 07 bc d2 f8 99 bb cf 06 7d 3d 8c 14 b2 3c
       -0.008280485 -0.004698851 0.06177407 0.021738313
0001e0 21 23 3c bc 3d c3 05 bc b5 c9 99 bc 0f 6a 95 3d
       -0.011482985 -0.008164224 -0.01877294 0.0729562
0001f0 f6 76 5a 3b a2 85 69 3d bc c7 df ba ea 1f 2a bd
       0.0033335066 0.057012208 -0.0017073075 -0.041534342

network_body.linear_encoder.seq_layers.0.weight f4 [128, 26]
000000 5d 33 4a 3e b3 17 c2 be 01 df 5c 3e 7d 0f 19 be
       0.19746156 -0.37908706 0.21569444 -0.14947315
000010 5f ae 20 bd 2f d3 e5 3b 05 47 b9 3e 51 a8 d7 3e
       -0.039228793 0.0070137004 0.36186996 0.42120603
000020 ee e0 84 3d bb 63 b2 bb af 2c e7 3e 82 be 5a be
       0.064882144 -0.0054440177 0.45151278 -0.21361735
000030 1c e1 3c 3b b4 ea 02 bf 97 a8 32 be 52 00 86 3e
       0.00288207 -0.5113938 -0.17447124 0.2617212
000040 2d 89 9d 3d ad 1d 8a bd 13 36 7c 3e 13 eb 4c bb
       0.0769218 -0.067439415 0.24630003 -0.0031268045
000050 66 df 4f be d2 06 57 be 95 67 5d bd f1 d8 86 3d
       -0.20300063 -0.20998695 -0.05405386 0.06584347
000060 4a dc 6f 3b 0e 36 8e bd 7e c9 f7 bd 93 13 27 3e
       0.0036599808 -0.06943904 -0.120989785 0.1631606
000070 65 a6 89 3e 4d fd c0 3b 88 d9 82 be 76 97 7e 3d
       0.2688476 0.005889571 -0.25556588 0.062156163
000080 37 42 16 3e 0c bc 8d b9 15 d0 22 3f 7e 1c a6 be
       0.14673696 -0.00027033722 0.6359876 -0.32443613
000090 0b 8e 31 3e ab 7a f6 bd 87 57 88 be 56 96 8d bc
       0.17339341 -0.12035116 -0.26629278 -0.0172836
0000a0 e0 b3 a2 bd 56 3d 73 3d 4a 06 e1 3e 65 97 7b 3e
       -0.07944465 0.059384666 0.4395011 0.24569471
0000b0 05 c3 d5 3e c7 c9 48 be 43 6a 6e 3c 90 fa f0 bd
       0.4175035 -0.19608222 0.014551702 -0.11766541
0000c0 88 96 1d be 4f 20 3c 3e 76 ac 7a 3d 51 16 61 be
       -0.15389454 0.183717 0.061199628 -0.2198117
0000d0 86 3a 68 bd f9 8f 43 be 99 e5 83 3e bd 2e 95 be
       -0.056696437 -0.1909789 0.25761107 -0.2913722
0000e0 a7 e8 63 3e a3 35 35 3e 0e 69 19 be d7 cd a1 3e
       0.22256719 0.17696242 -0.14981481 0.31602356
0000f0 30 8b bb be b5 43 81 bc e6 0f 58 3d 68 a1 6e bd
       -0.3662963 -0.015779356 0.052749537 -0.058259398
000100 23 06 18 3e f9 5e 98 bc e9 31 0a bc 5f aa 33 3e
       0.14846091 -0.018599974 -0.008434751 0.1754546
000110 ed ed 73 3e d4 99 6b bd 05 44 fa 3d 25 c3 43 be
       0.2382123 -0.05751975 0.12220005 -0.1911741
000120 52 51 ba 3d 5b b6 80 3e cc 99 cc 3e 9f 69 0f be
       0.09097542 0.25139126 0.39961088 -0.14005135
000130 61 68 e8 bd 8b ca 8d 3d e7 74 2b 3e c8 c0 a9 be
       -0.11348034 0.06923398 0.16743813 -0.33154893
000140 69 dc 85 be a1 01 89 be cc 00 9e 3e f1 6c 10 3d
       -0.26144722 -0.26759055 0.30859983 0.035260145
000150 1f b3 8a be db 30 01 be 88 2a 86 be c4 05 b8 be
       -0.27089784 -0.12616293 -0.26204324 -0.359419
000160 b4 fa 94 be 4f d4 85 bd f2 ac 2a be c1 99 59 be
       -0.2909752 -0.06534635 -0.16667536 -0.21250059
000170 43 8c b7 be 8a 65 56 bd 30 b9 b2 bd 7a 2e 48 be
       -0.358492 -0.05234293 -0.08726728 -0.1954898
000180 a6 ce 1a 3e 41 4b 21 3e 26 36 0f be 95 7e aa be
       0.15117893 0.15751363 -0.139855 -0.332997
000190 72 3a 92 3e db b2 8a bc d9 05 b6 3d 9f b9 c0 3d
       0.28560215 -0.016930988 0.08887834 0.094104044
0001a0 d4 6e d5 3d c9 e1 53 3d 34 81 c7 3b ec 89 08 3f
       0.104215294 0.051728997 0.0060884003 0.5333545
0001b0 dd 19 96 3c 87 a1 61 3e b8 fb 92 be 48 f5 43 be
       0.01832288 0.22034274 -0.2870767 -0.19136536
0001c0 f6 b3 37 be 15 3a 3f bd 62 6d c2 3d a5 3b 8a be
       -0.17939743 -0.04668625 0.09493519 -0.2699863
0001d0 44 12 b8 3e 30 02 08 bc 1b db 4b be 08 81 b0 3e
       0.35951436 -0.008301303 -0.19907801 0.34473443
0001e0 73 de 1f 3e 29 cb f2 3d e5 5a b0 3d 3c ce 5d be
       0.15612201 0.11855156 0.08611087 -0.21660703
0001f0 98 5c ba be a7 91 1a be 5c 98 0d be d3 dd 84 be
       -0.36398768 -0.15094624 -0.13827652 -0.25950488
000200 12 60 9c be 35 ba 6e 3e 33 1c 90 3e 43 8e ca 3e
       -0.30542046 0.2331322 0.28146514 0.39561662
000210 81 0a eb bb 3e 34 fd bd 31 2d 44 bc d7 69 ec 3e
       -0.007172883 -0.1236348 -0.011973665 0.461745
000220 30 8c c1 bd 52 56 26 be 90 13 5b be 33 9e b6 be
       -0.09450567 -0.16243866 -0.21394181 -0.3566757
000230 0c 54 78 3e b8 88 c0 be 74 d8 c7 3d 51 ab 88 3d
       0.24250811 -0.37604308 0.09758082 0.06673301
000240 8e a6 09 be 3d 75 08 3e 44 1b b2 bd 7a 28 ee 3d
       -0.13442442 0.13325973 -0.08696607 0.11628814
000250 4a 46 02 be d2 73 b1 bc 4f ca 7f 3e 83 62 fa 3d
       -0.12722126 -0.021661673 0.24979518 0.12225821
000260 e6 ee d6 bb 4b 7a 34 be 7d 59 1e be 2b 1a 8a be
       -0.0065592406 -0.17624776 -0.15463825 -0.2697309
000270 17 b4 79 3e f7 c2 46 be 7d 35 a5 be 0a fa 03 3f
       0.24385105 -0.1941031 -0.3226737 0.51553404
000280 72 25 03 3e ec 9b cc bc c8 0a 72 3e 9d 7a 6f be
       0.12807253 -0.024976693 0.23636925 -0.23386617
000290 d4 34 a9 3d f7 6d 38 be e1 1f 50 bd 44 f7 20 be
       0.08262029 -0.18010698 -0.050811652 -0.15719324
0002a0 4b ff c6 3e 1b d4 71 3e 97 09 6b bd f8 b8 47 be
       0.38866648 0.23616068 -0.057382192 -0.19504154
0002b0 e5 07 3b be bf f9 97 3e 9d 6d c3 3b 2f 94 e2 be
       -0.1826473 0.2968273 0.0059639947 -0.4425368
0002c0 80 8d a4 3c bf 33 88 3e ee c7 37 be 0e 8f 61 3d
       0.020087004 0.2660198 -0.17947361 0.05506807
0002d0 7f 06 51 3e 6c 7a b4 bd 85 10 89 bc 57 3b ad bc
       0.20412634 -0.088124126 -0.01673151 -0.02114646
0002e0 22 a5 8a 3d 68 ed 93 3e a1 67 6b be 30 2e 83 3e
       0.06769778 0.28892064 -0.2298875 0.25621176
0002f0 3b 76 cf 3e 31 a9 7e 3d 0b 7c 2d 3e 37 4d 52 3e
       0.4051989 0.062173072 0.1694185 0.20537268
000300 80 47 26 be 5b e0 7b 3e 2e 03 70 3c 7a ac 7d bd
       -0.16238213 0.24597304 0.014649196 -0.061932065
000310 ed a4 8e be 96 5d 07 3d dd 8b 80 3e d5 19 87 3d
       -0.27860203 0.033048235 0.25106707 0.06596724
000320 1e 24 8b bd 25 c2 03 bd f5 68 c9 be e0 0c 40 3e
       -0.06793998 -0.032167573 -0.39337888 0.18754911
000330 c2 e8 ee 3d 59 23 17 be 55 ef 6e bd dd d3 09 3d
       0.11665489 -0.14759578 -0.058333714 0.033649314
000340 d5 e2 da 3c b1 de d7 3c c7 8b 00 3f 44 a6 8e 3d
       0.02671949 0.026351305 0.50213283 0.069653064
000350 52 8f 95 3d 29 e9 19 bd 34 d9 af 3e 83 3b 37 3d
       0.07302727 -0.037575874 0.343454 0.04473449
000360 a9 d2 e1 3d eb 2a 58 be 28 8d 4d bd 04 d7 94 3e
       0.11026508 -0.21110122 -0.050183445 0.29070294
000370 7e 92 48 be 43 fe 55 3c ab a6 c7 bc 3d 55 f7 be
       -0.19587132 0.013061109 -0.024371466 -0.4830722
000380 4e 1f 81 3e a9 c7 86 be 3a ec 3e be f9 e4 3f 3e
       0.25219196 -0.26324204 -0.18644801 0.1873969
000390 ca 6e 2f 3e 34 03 2a 3e b6 92 f6 3d 63 e5 2d 3b
       0.17132106 0.16602784 0.12039702 0.002653443
0003a0 89 06 60 3c 41 50 11 be 6b 20 cf 3d 00 eb 33 3c
       0.013673433 -0.1419077 0.10113605 0.010981321
0003b0 da b0 a3 3e eb ba 63 3d 59 88 43 3e 8e 34 3c 3d
       0.31970865 0.05559818 0.19094981 0.045948558
0003c0 1d ef 6d be bb c9 54 3e c6 4d 27 3c 0c 28 b4 be
       -0.23235746 0.20780079 0.010211414 -0.35186803
0003d0 0c 8b be bd d5 92 c5 be b1 f4 d9 be 7b 8a 00 3b
       -0.09303865 -0.38588586 -0.42569497 0.001961379
0003e0 f2 89 e6 3d 0d 08 f8 3c db bb 02 bf 12 6e 81 3e
       0.1125678 0.030277276 -0.51067895 0.2527929
0003f0 d8 e9 fe 3c 64 ee 50 3e dc c8 df be 73 6e 6a 3e
       0.031117365 0.20403439 -0.4370793 0.22893696

network_body.linear_encoder.seq_layers.2.bias f4 [128]
000000 f1 84 34 bc 1b 84 1d 3c a5 46 fa bb e1 0b 7f 3c
       -0.011018024 0.009614016 -0.007637816 0.015566797
000010 7f 05 e2 bc 4c ec 5a 3b 99 f8 02 bd 4c db b4 bb
       -0.027590511 0.0033405004 -0.031975362 -0.0055193063
000020 f2 d7 a8 bc e8 a5 43 3c da c6 2d 3c 87 72 27 bc
       -0.020610783 0.011941411 0.010606492 -0.010220177
000030 bc 90 95 bd 0d fe 57 3c 69 9f be 3c 52 55 98 3c
       -0.073029965 0.013183129 0.023269372 0.018595371
000040 44 92 0e bb e6 76 4a 3c 08 57 db 3b 57 81 f0 3b
       -0.0021754662 0.012357449 0.0066937245 0.0073396373
000050 93 88 94 3c bc dd 80 bc e1 61 06 bd cc be 14 3c
       0.01813153 -0.015730731 -0.03280819 0.009078693
000060 08 a1 90 bd 29 8c 08 3c 0e 7b 45 3a f3 23 f9 3c
       -0.07061964 0.008334198 0.000753329 0.03041265
000070 5b 00 0a bd 7a ec 1b 3c ed f1 0a bd f8 bb 4b bd
       -0.033691745 0.00951683 -0.033922125 -0.049739808
000080 4f 14 45 3c 8b 96 ae 3b 33 5a 3f 3c f8 ed 32 3c
       0.012028768 0.0053280047 0.01167922 0.010920994
000090 83 bc 8f ba a1 14 db 3c ba 14 ca 3b 03 be 0f bb
       -0.0010966215 0.026743235 0.0061670216 -0.0021933324
0000a0 a0 7b ba bc ec c1 84 bc 42 de cd 3c 09 40 a3 3c
       -0.022764027 -0.01620575 0.025130395 0.019927995
0000b0 82 9d a2 bc 0c b2 25 3c 9c 9b ac bc 36 ad 5f bc
       -0.019850496 0.01011325 -0.021070294 -0.013652137
0000c0 f0 ba a6 bb f7 10 40 38 7c f7 28 3c 34 62 bf 3b
       -0.0050882027 4.5792167e-05 0.010312911 0.005840564
0000d0 e1 56 94 bc 57 2c 55 3c a1 f1 0c bb 1b b3 11 bc
       -0.018107833 0.01301106 -0.0021506327 -0.0088928
0000e0 18 d8 02 3d 28 45 78 bb 8e ee 0c 3d 25 40 1e bd
       0.031944364 -0.0037883017 0.03440719 -0.03863539
0000f0 46 a4 9c bc f3 4a e3 bc 38 0e 81 bc 78 85 41 3c
       -0.0191213 -0.0277457 -0.01575385 0.011811607
000100 a1 60 12 bc d9 a2 c9 bc 67 a8 7a bb aa bc 58 3b
       -0.008934171 -0.024613785 -0.0038247348 0.0033071437
000110 e8 79 4f bc ac a5 60 3c 0f 14 21 3c 97 8a 19 bc
       -0.012663342 0.013711374 0.0098314425 -0.009371421
000120 5f 57 fb bb 83 39 d2 3c 57 49 0b bd 1d 4c da bc
       -0.0076703276 0.02566219 -0.03400549 -0.026647622
000130 67 ee 6d ba 07 00 03 bc a2 9e 03 bd 6e fc a8 3c
       -0.0009076357 -0.007995612 -0.032133706 0.02062818
000140 f6 d6 fc bc 79 c5 ee ba b2 8a 6e bc 46 b1 09 3b
       -0.03086422 -0.001821681 -0.014559435 0.0021010204
000150 d7 e0 bd bb 6d 14 b2 3c a9 75 91 3c 25 61 74 bc
       -0.0057946253 0.021738255 0.0177563 -0.014915739
000160 e0 56 2c bc 1b 4b 11 3c 02 58 c5 bb a5 a4 b1 3c
       -0.0105187595 0.008868004 -0.0060224542 0.021684954
000170 d7 57 ec ba 0f 59 32 3c 16 ff c0 3a 0a 66 83 bc
       -0.0018031549 0.010885491 0.0014724459 -0.016039867
000180 ee 79 6a bb 04 87 bf b9 98 b9 37 bd b9 7a b3 3a
       -0.0035778242 -0.00036530953 -0.04485473 0.001369319
000190 6e dd ab bc f6 6e a7 3b 07 10 d7 bc b5 05 ec bc
       -0.02097961 0.005109663 -0.02625276 -0.028811315
0001a0 0a 8c 00 3b c5 b8 c3 bc 11 32 2a bd 8a b5 66 bd
       0.001961472 -0.023891816 -0.041551653 -0.056325473
0001b0 0e 81 34 3c a1 08 7e 3b 3c d4 88 3c 1a 8f c2 3b
       0.011017097 0.0038762467 0.016702764 0.005937469
0001c0 91 31 66 bd a2 a8 d7 bc 32 0c 0b 3c bd 09 06 bc
       -0.056199614 -0.026325528 0.008486794 -0.008181033
0001d0 4d 3e 48 3c b2 46 9f 3c ec e9 23 bb 72 13 82 bc
       0.012221885 0.01944289 -0.0025011254 -0.015878413
0001e0 c1 eb 2f bc 4f 2c c9 bc 9a 42 42 3c 8c 43 92 3c
       -0.01073736 -0.02455726 0.011856699 0.017854474
0001f0 fe 23 88 bb 28 d1 2a 3b c2 93 4f 3c f2 86 f2 bb
       -0.004154681 0.0026064608 0.012669506 -0.0074013406

network_body.linear_encoder.seq_layers.2.weight f4 [128, 128]
000000 c7 f0 01 bd 1e 38 e9 bc 8a a7 2b be 00 2d 9e 3d
       -0.031723764 -0.028469142 -0.1676313 0.07723427
000010 c5 a9 24 bd 78 68 10 3e 58 40 77 bd 8d a3 5b 3c
       -0.040200967 0.14102352 -0.060364097 0.013405693
000020 7e c7 70 bd 2a f9 0e 3e 70 c6 73 3d 36 20 50 bc
       -0.058784 0.13962236 0.059515417 -0.012702992
000030 7d 0f 3d be 9a 11 99 bd 98 96 4c bd 19 fc 77 ba
       -0.1846294 -0.0747406 -0.049948305 -0.0009459868
000040 5d 55 3c 3c 05 b1 6d bd 32 7b d2 3d 66 a4 58 3d
       0.011494962 -0.058030147 0.10277404 0.052891158
000050 1a 93 8b bd 90 26 20 3c cc 31 91 bb bf a8 4a 3d
       -0.06815167 0.009774819 -0.004430985 0.049477335
000060 4a 86 dc 3d 46 dd 7b bd d2 db 5c be 83 af 62 3e
       0.10767801 -0.06149032 -0.2156823 0.22137265
000070 8f 8a 05 3e 89 ad 1e be d2 ab 8c b9 de 62 32 bc
       0.13041137 -0.15495886 -0.00026830897 -0.01088783
000080 b0 39 54 3e 4b 5c 82 bd 11 6f 9a bc a5 02 ca bd
       0.20725131 -0.0636526 -0.018851789 -0.09863786
000090 d8 dc 09 be 7d 0e 58 bd 98 2e 5b bd 6f 91 01 3e
       -0.13463151 -0.052748192 -0.053511232 0.12653135
0000a0 04 5c 84 bd 21 79 c2 bd 6a 57 b6 3c c1 07 ec 3c
       -0.06462863 -0.0949576 0.02225848 0.028812291
0000b0 e6 c3 2b 3d af bb a5 bd c3 10 4e 3d 0e 0d 2f 3d
       0.04193487 -0.080924384 0.050308954 0.04273706
0000c0 80 79 7b 3d 79 b7 16 be 5a 71 56 bd 93 e1 00 be
       0.06139517 -0.14718427 -0.052354194 -0.1258605
0000d0 7f e7 45 3e 99 6d a1 bd b3 9e 17 3d 1a 89 14 bd
       0.1932659 -0.07882232 0.03701658 -0.036263563
0000e0 ae de 9a 3d d1 a1 31 3e e5 48 7e 3d e0 e4 5b be
       0.07562004 0.17346884 0.062081236 -0.21474028
0000f0 9f 58 ca bd 07 d1 bb 3c 37 81 a2 bd a3 aa 81 3d
       -0.098801844 0.02292682 -0.07934802 0.063313745
000100 97 9b 72 be 3a 63 be 3c 9c ed 94 bc b1 cd f5 bc
       -0.23692165 0.023240674 -0.018179707 -0.030005308
000110 41 b1 c1 bd ce cf 5a 3d 0c f6 af 3d 24 2a 27 3e
       -0.094576366 0.053420834 0.085918516 0.16324669
000120 4f e1 85 3d 27 2a 6c 3c 87 82 31 be 16 bf b5 bc
       0.06537115 0.014414347 -0.17334948 -0.022185843
000130 12 50 6a bc 56 db 22 3b 56 6e 12 3e de 04 a8 3d
       -0.014301317 0.0024849973 0.14299902 0.08204053
000140 ec 33 9c 3b 45 07 93 3d 5a 5c 30 3c be 62 87 3d
       0.0047669318 0.07179121 0.010764206 0.066106305
000150 79 9b ef 3c 69 9d 20 bb b5 43 cf 3c e2 7b 28 bd
       0.02924894 -0.0024507886 0.02530084 -0.04113377
000160 f8 91 61 3e 7d 7a 1c 3e 53 eb dc 3d 5a 30 ed 3c
       0.22028339 0.152811 0.10787072 0.02895372
000170 db 51 94 3d 23 52 aa 3a 03 93 0f be 51 b1 18 3c
       0.07242175 0.0012994449 -0.14020924 0.009319619
000180 8e e0 f5 3d 75 15 01 3d 4a 14 f3 3c fb 7a fe bd
       0.12005721 0.031514604 0.02967276 -0.124258004
000190 1e c4 f9 3d 87 ab c2 3d eb b0 ab 3a 16 57 11 bd
       0.121956095 0.095053725 0.001309899 -0.035483442
0001a0 22 ed cd 3c db be 97 3d 71 b7 84 3d f8 24 8c bc
       0.025137488 0.0740945 0.06480301 -0.017107472
0001b0 cb d1 d0 bd 52 f5 12 3d a1 79 d8 3d 57 8b 29 bb
       -0.10196265 0.035878487 0.10570074 -0.0025870407
0001c0 b2 02 9b 3d 09 b4 a7 bd 01 ca 3c be 83 cb 8a 3c
       0.075688735 -0.08188636 -0.18436433 0.016942745
0001d0 db 61 83 bb 8d 14 fc 3c 54 e0 f4 3d f1 86 0e be
       -0.004009468 0.030771518 0.1195685 -0.13918664
0001e0 9c 29 63 3d 32 bb 10 be 82 29 7f be 48 25 4c bd
       0.055459604 -0.1413391 -0.24918178 -0.04984024
0001f0 a4 f9 34 bd 81 85 28 be 34 64 be bc f6 5c a8 bd
       -0.04418339 -0.16457178 -0.02324114 -0.08220856
000200 88 fd 80 bd fd 53 70 bd 0c 4c 00 bd b2 96 18 3e
       -0.06298357 -0.058673847 -0.031322524 0.14901236
000210 b5 3f 5f bd 3c e6 09 3e bf d9 42 be a1 b1 b3 3d
       -0.054504115 0.13466734 -0.19028376 0.087741144
000220 d8 71 c1 3d 82 58 55 3e 33 9d 63 3d 51 e8 b7 3c
       0.09445542 0.20834544 0.05556984 0.022449644
000230 b2 8a 6d bd 12 8b 23 3e a4 7f b6 3d c8 39 1b 3e
       -0.0579936 0.1597102 0.08911064 0.1515876
000240 7b 04 a1 bd df 6f 26 3e 12 ee 4b 3e ba 46 dd bd
       -0.07862183 0.16253613 0.19915035 -0.10804506
000250 02 f1 90 3c 8c c1 a7 bb 77 bc 0c bc ad e0 83 3b
       0.017693046 -0.005119508 -0.008589855 0.004024586
000260 64 d4 f2 bd 76 ff 42 3c 87 ba 0e be ec 74 57 bd
       -0.118569165 0.011901727 -0.13938342 -0.05260174
000270 06 1c d3 bd de a2 11 bc 25 ac aa 3d 7b 92 f6 3b
       -0.103080794 -0.008888928 0.08333615 0.007524786
000280 29 55 e0 bd ef 72 9d 3d 08 a2 09 bd e1 35 d7 3d
       -0.10953743 0.076879375 -0.03360179 0.105083235
000290 26 6b 11 bd 0e 2d b0 3d 28 93 75 3d 10 08 69 bd
       -0.035502575 0.086023435 0.059954792 -0.056892455
0002a0 bb f2 c1 bd 05 ef ec 3c 26 9f 8e 3c af f9 e0 bd
       -0.09470125 0.028922567 0.017409872 -0.10985123
0002b0 41 94 55 3d 88 cb 47 3e a8 1c a5 3d f0 b6 c5 bd
       0.05214334 0.19511235 0.08062106 -0.09654033
0002c0 63 91 cd bd cf 72 09 bd d7 7e 2e 3c fe e1 99 bd
       -0.10037496 -0.033556756 0.010650358 -0.07513808
0002d0 02 89 19 3d bb a2 9e 3d 93 82 d6 bc 55 32 1a 3b
       0.037484176 0.07745882 -0.02618531 0.0023528535
0002e0 4b 43 9f bd 8b 45 86 3d fc b0 18 3e 64 33 b4 3c
       -0.07776507 0.06556233 0.14911264 0.021997161
0002f0 96 2c 8e 3d a5 4c fa 3c 8b 3c c9 3d 9c 5c e5 3c
       0.06942098 0.030554125 0.09826001 0.027998261
000300 9e e5 fa 3b 5d f4 3d 3e 60 29 87 3d 74 d4 ef 3d
       0.007656767 0.18550248 0.065996885 0.11710444
000310 a1 89 3e be 49 8f d9 bc ca 92 c2 3d d2 96 23 be
       -0.18607189 -0.026557581 0.09500654 -0.15975502
000320 ad 86 9a 3d d6 2a ba bb 94 4e 47 3d bf c3 8f bd
       0.075452186 -0.005681376 0.048658922 -0.070197575
000330 77 26 2f 3e e6 f3 0a 3d 80 80 93 3d 81 de b9 bd
       0.17104517 0.033924006 0.07202244 -0.090756424
000340 55 ba 8c 3d 5e 5b 9a bd 7e 5f 95 3e 53 bc 24 be
       0.068714775 -0.07536958 0.29174417 -0.16087465
000350 6c 6c 4b 3d da de 96 3c 12 10 27 be a0 ea 76 3d
       0.049663946 0.01841681 -0.16314724 0.06028235
000360 bc 8e 81 3d 6a bb 14 3d b5 f2 51 be 3e 3f 05 3e
       0.063260525 0.036311544 -0.20502742 0.13012406
000370 68 cb f3 3d 71 42 71 bd b6 d3 a6 3a 7e 8a 10 bd
       0.11904031 -0.058901254 0.001272789 -0.035288326
000380 4e c1 3f be 2d 1e c0 bd d2 60 6b 3d a9 ae 00 3d
       -0.18726084 -0.093807556 0.057465382 0.03141657
000390 f2 c1 36 3c 15 93 24 bd 0d 72 34 3d 6f 31 9d 3c
       0.011154639 -0.04017933 0.04405408 0.01918861
0003a0 1f 86 e8 3c 87 ac 27 3d 4c c3 85 bb b7 61 b9 3d
       0.028384266 0.04093602 -0.004082119 0.09051841
0003b0 e5 86 8f 3d b9 14 4c 3d 70 61 20 bb b7 68 a3 bd
       0.07008151 0.04982445 -0.002447214 -0.07978957
0003c0 7c 38 1e 3d 0b 5b 49 bc 67 54 49 3d 87 c6 c9 3d
       0.038628086 -0.012289773 0.049152758 0.09852319
0003d0 6a 59 92 3d 7c 55 32 3d 35 56 20 be 1c 39 d6 3d
       0.07145961 0.043538556 -0.15657885 0.104601115
0003e0 10 da 1c be 38 56 3b 3d b1 19 90 3e dd bd 3c bd
       -0.15317559 0.04573652 0.281446 -0.046079505
0003f0 11 a2 a1 bd ee 83 5d bd be 4c 98 bd f3 7e 02 3d
       -0.0789224 -0.054080896 -0.074365124 0.03185935

network_body.linear_encoder.seq_layers.4.bias f4 [128]
000000 21 f3 ad 3c 17 7e 9a bc 4d 57 36 bc 6e f7 bb bb
       0.021234097 -0.018858952 -0.011129213 -0.005736283
000010 8d 8f 56 3a e5 6f 06 ba c1 68 6d 3b 50 ba 61 3c
       0.0008184843 -0.0005128368 0.0036225768 0.0137773305
000020 30 78 09 bd 72 51 0b bc 07 c8 80 bb 88 29 c6 3c
       -0.033561885 -0.008503305 -0.003930095 0.024189726
000030 56 cc 03 bd 33 41 fb bc c7 dc 6d 3a da 95 27 b9
       -0.03217729 -0.030670738 0.0009073731 -0.00015982185
000040 0b 16 d3 bc ae c7 9e bc ab e7 d3 3c 99 ef 83 3b
       -0.025767347 -0.019382324 0.025867304 0.004026365
000050 f2 b5 fc 3c fe ae f3 bc 09 0a 0f 3d 76 c4 f6 3b
       0.030848477 -0.029746529 0.03492168 0.007530744
000060 3a b9 1a bd e5 d4 a0 bd 77 51 81 ba cd ff f3 bc
       -0.037774302 -0.078531064 -0.0009866197 -0.029785061
000070 ee 4f 68 ba a4 e0 b7 ba cc 73 39 3d 01 93 92 bc
       -0.0008862008 -0.001402874 0.045276448 -0.017892363
000080 c2 ac e2 3c ec f3 9d 3c 0e 20 c3 3c 8d bc 3a bc
       0.027670268 0.01928135 0.023818996 -0.011397493
000090 1e 08 31 bd bc 52 e1 bb f3 76 e5 bc 66 ec 17 3c
       -0.04322063 -0.006876318 -0.028010821 0.00927267
0000a0 a9 47 70 3c a1 2d 50 bd 59 43 49 3c 8c 69 b6 bc
       0.014665523 -0.050824765 0.012284123 -0.022267126
0000b0 76 c0 7f bc 26 65 a2 3a 7c 30 0f bd 27 58 ac bc
       -0.015609851 0.0012389764 -0.034958348 -0.021038128
0000c0 e1 04 d7 bb 34 54 00 bd d0 86 1d 3c 29 ac 32 3d
       -0.006561861 -0.031330302 0.009614661 0.043621216
0000d0 b6 3d 70 bc 63 ce 2d bd 89 c4 69 bc ab 24 32 3c
       -0.0146631505 -0.042433154 -0.014268049 0.010873
0000e0 d7 30 78 bc 00 0b d1 3a da c9 84 bc 45 60 51 bc
       -0.015148363 0.0015948713 -0.016209532 -0.0127793
0000f0 77 03 ef bb 40 66 98 bb 9d 75 0e bd 4e 1a 00 bd
       -0.007294114 -0.004650861 -0.034780134 -0.031275086
000100 42 15 80 bc f2 66 87 bc 01 d4 69 bc 92 61 8e bb
       -0.015635137 -0.01652858 -0.014271737 -0.0043451274
000110 47 9a 7b bc 05 b1 ee 3c c1 c7 c2 bc 24 8a c8 3c
       -0.015356607 0.029137144 -0.02377689 0.024479933
000120 15 fd 36 bc 65 ab 74 bb 30 e7 83 3c 08 07 35 bc
       -0.011168738 -0.0037333604 0.01610145 -0.01104904
000130 c4 56 0b bb 4e 51 a8 3b 55 75 25 3b b9 d1 76 3c
       -0.0021261433 0.0051366454 0.0025246937 0.01506465
000140 68 08 42 3c 4f be 0b 3d 6f 9e 17 39 19 7e 8c bc
       0.0118428245 0.03411704 0.00014459503 -0.017149972
000150 01 4f bd bb 84 ab 08 3d 1d 62 34 3c 17 15 d1 ba
       -0.0057772403 0.033366695 0.01100972 -0.001595172
000160 1f a8 15 3d 94 7a e2 bc fd 5b 55 bc ea f5 df bc
       0.036537286 -0.02764634 -0.01302242 -0.02733894
000170 f8 10 d3 3c 2e 4a 42 bc 5c 96 a1 bc 2c 6b 12 bd
       0.025764927 -0.011858506 -0.019725017 -0.03574674
000180 76 a3 db bc c5 23 d2 bc ad 05 13 bd 38 17 2c bb
       -0.026811343 -0.025651822 -0.035894085 -0.0026258957
000190 d1 38 84 bc 98 f3 70 bc bf ce 98 39 a1 69 eb bb
       -0.016140373 -0.014706515 0.00029145737 -0.007184223
0001a0 ce 12 cf bb b7 f8 16 bc 22 b2 ef bc 39 d7 fe 3a
       -0.0063193804 -0.009214572 -0.029259745 0.0019442803
0001b0 5f 59 87 bc 6a 50 4a 3b c8 c1 ec ba de 2c 80 bd
       -0.016522108 0.0030870684 -0.0018063122 -0.06258558
0001c0 8b 29 93 3c b7 9c 0a bd ad 02 85 ba c5 68 64 3b
       0.017964145 -0.03384086 -0.0010147892 0.0034852487
0001d0 10 a4 32 3b 97 95 04 bc d8 5c ef bc 22 76 85 3c
       0.0027258433 -0.008092306 -0.029219076 0.016291682
0001e0 b7 36 73 bc ff 36 5e bd 2a 0a c0 3c db 75 b4 bc
       -0.014844588 -0.054251667 0.023442347 -0.022028854
0001f0 b9 55 89 bc 4c 88 86 bb c2 bd 24 3d 5e 43 07 bd
       -0.016764509 -0.0041056033 0.04022003 -0.03302323

network_body.linear_encoder.seq_layers.4.weight f4 [128, 128]
000000 70 d6 47 3c 61 6a d2 bb 5b 20 e4 bc 26 f8 36 3d
       0.012197122 -0.0064213728 -0.02784746 0.044670247
000010 e1 da 41 be f4 04 d9 bc f3 58 05 3e 9a 96 53 3d
       -0.18931152 -0.02649162 0.13022213 0.051657297
000020 86 03 49 ba ff d8 aa 3d 1b 1a 19 bd da 01 d4 bc
       -0.00076680665 0.0834217 -0.03737841 -0.02587979
000030 82 25 b6 bd 0a d1 00 3e 22 d3 2b 3d 67 15 de 3d
       -0.08893873 0.12579742 0.0419494 0.10843926
000040 d7 e3 d9 bc aa ba aa bd db 0f 30 be f8 50 86 bd
       -0.0265979 -0.083363846 -0.17193548 -0.06558412
000050 27 bd 01 3e 24 63 b3 bd 2e 9d 1b be bd 8e 00 be
       0.12669812 -0.08759144 -0.15196678 -0.1255445
000060 bc 28 94 bd 69 89 9c bd f4 a7 6b be 11 91 13 3d
       -0.07234332 -0.076433964 -0.23013288 0.036027018
000070 a7 1f 9a 3d 78 26 8e 3d 34 1b c4 bd e1 06 34 be
       0.075255685 0.06940931 -0.09575501 -0.17580749
000080 f2 18 35 3d 88 5b b0 bd 6c ca 94 bd 43 1c b5 3d
       0.044213243 -0.08611208 -0.072651714 0.08843281
000090 ff 3d ed bd 01 00 43 3d 5b c4 ff bc d5 e3 f0 3d
       -0.115840904 0.047607426 -0.03122156 0.117622055
0000a0 cc 8e 12 bc a7 7a be 3a 38 6e 42 be 40 57 66 bd
       -0.008945178 0.0014532403 -0.18987358 -0.05623555
0000b0 8b 08 00 3c 91 3b 4f bd 86 73 89 3d 73 0e 36 3d
       0.007814537 -0.050593916 0.067114875 0.044447374
0000c0 c3 ff ae bd 93 f8 37 bd 0d e0 fb bd c3 88 0e be
       -0.085448764 -0.044914793 -0.12298594 -0.13919358
0000d0 a1 f6 39 3b e1 9c 0a be 07 18 49 be a7 9e e2 3d
       0.0028375762 -0.13536407 -0.19638072 0.11065417
0000e0 f7 8a 42 be 11 5a 13 be 02 5e b9 3d 83 8f 90 3c
       -0.18998323 -0.14389826 0.09051134 0.017646557
0000f0 0d 96 34 3d 3d 6d 81 3d b7 c9 aa bd 3b f2 1d 3e
       0.044088412 0.06319664 -0.08339255 0.15424435
000100 f6 11 74 3d 5b 65 fc 3c 0b 6d 98 bd 7d 97 19 3e
       0.05958744 0.030810049 -0.07442673 0.14999194
000110 ed b9 c5 3d 09 86 97 bd f1 46 7e 3d 9b 99 d6 3d
       0.09654603 -0.07398612 0.062079374 0.10478517
000120 bd 46 4e bc c1 a7 ab bc 50 db 72 3d db f5 f3 ba
       -0.0125901075 -0.020954015 0.059291184 -0.0018612699
000130 4f ed af b8 0c db 6e bd ff 1d 98 3c 33 3f b4 3d
       -8.3888524e-05 -0.058314368 0.01856899 0.08801117
000140 a5 2e 85 3c dc 3a 4f be 58 4b af 3c cf 46 12 ba
       0.016257593 -0.20237297 0.021398231 -0.00055800093
000150 f1 e7 f9 3d ef 7e e1 3c f5 9a 13 3e b2 cd 32 be
       0.122024424 0.027526347 0.1441458 -0.17461279
000160 8d cb 0f 3d 80 1c 04 be 01 84 2e 3e f1 83 87 be
       0.03510623 -0.12901497 0.17042543 -0.2646785
000170 cc 88 8d bc 19 93 54 3e 4f c4 bc 3d d0 e3 96 bd
       -0.017277144 0.20759238 0.092171304 -0.073676705
000180 92 56 fa 3c db 68 3d 3c b4 42 e1 bc 33 f6 fb bc
       0.030558858 0.011560644 -0.027497627 -0.030757045
000190 9d 32 77 bd 3d 1d b3 3d e3 d4 1a bd 4a c0 94 3c
       -0.060351003 0.08745811 -0.03780068 0.018158097
0001a0 f5 ec 1a be c8 0c 27 be ec c3 c9 bc b9 24 1b be
       -0.15129454 -0.1631347 -0.024629556 -0.15150727
0001b0 68 92 84 bd 01 93 9b be a3 63 9d bd 95 10 15 3e
       -0.06473237 -0.30385593 -0.0768502 0.14557107
0001c0 d8 5a b0 3c 53 e8 e3 3c e4 63 9d bd 41 07 03 3e
       0.021527693 0.027820742 -0.07685068 0.12795736
0001d0 c4 16 aa bd f9 75 9c 3d f0 7a 34 bd 83 01 38 bd
       -0.083051234 0.07639689 -0.044062555 -0.044923317
0001e0 45 12 e0 bd 5d 15 eb bc 40 7a 9a bd 64 d3 94 bc
       -0.10940985 -0.02869671 -0.075428486 -0.018167205
0001f0 fb 5c 37 3d cd 07 06 3e 5b f7 1f 3e 94 d6 bf bd
       0.044766407 0.13088913 0.15621702 -0.093670994
000200 7f 0a 62 bd b3 5a 5d 3d e9 b7 77 bd 70 24 d3 bd
       -0.05518579 0.054041576 -0.060478125 -0.10309684
000210 54 3f f3 3d af 50 04 be a5 26 2b 3e 17 a2 25 3d
       0.11877313 -0.12921403 0.1671396 0.040437784
000220 05 27 82 3d 5f 46 63 bc 25 44 58 bd d2 be 49 3e
       0.06355099 -0.013871758 -0.052799363 0.19701698
000230 99 46 fb 3d 3b 87 4c 3e f8 e9 b6 bb 29 88 40 3e
       0.12269325 0.19973461 -0.0055820905 0.18801941
000240 5e 04 e0 bd 6a 6d 30 bd 7a 13 38 3e ac 1a 1a 3e
       -0.10938333 -0.043073095 0.1797618 0.15049237
000250 18 a9 f1 bc df 84 fd 3c 05 dd 81 3d 7c bc 8b bd
       -0.029499575 0.030947147 0.06340984 -0.0682306
000260 d1 35 d5 3d 36 2f 0c bd 80 dd 39 3e 6c 48 99 3d
       0.10410655 -0.03422471 0.18150902 0.074845165
000270 48 2a ec 3c 71 d4 e5 3d e1 12 86 bd 1d e8 b2 3d
       0.028828755 0.112221606 -0.065465696 0.08735678
000280 3b 24 00 3c 7f 55 55 3e 15 aa bb 3d d4 95 8d bd
       0.007821138 0.20833395 0.091633 -0.06913343
000290 5f ef 29 bc 55 4c 02 3e d1 21 1d be c6 84 4f 3d
       -0.010372012 0.12724431 -0.15344931 0.050663732
0002a0 fc 2b 12 3e 5d 7d 7f 3d 96 5f 8c 3d b2 7b c5 3c
       0.14274591 0.062375415 0.06854169 0.024106834
0002b0 8f 6c 2f 3e b7 1a 0f 3e f3 b5 2c 3c 98 34 61 3d
       0.17131256 0.13975035 0.010541427 0.054981798
0002c0 a3 03 e9 bd d4 af eb bc d2 e8 87 bc e9 4f ae 3c
       -0.11377647 -0.028770365 -0.01659051 0.021278339
0002d0 ea 0b 43 be 82 e8 5b 3b b8 1f a2 3e eb 8a 07 3e
       -0.19047514 0.0033555334 0.31664824 0.13236587
0002e0 88 06 92 3d 9d e3 54 bd 80 69 3f be 55 fc 00 bd
       0.07130152 -0.05197488 -0.18692589 -0.031490643
0002f0 3e 70 22 bd 92 ee e4 bd e1 cb 26 bd 3c f9 4b bd
       -0.039657824 -0.11178316 -0.040721778 -0.049798235
000300 6b 98 1e bd a1 56 f7 3d 03 2e 90 3d e6 30 65 3e
       -0.038719576 0.1207707 0.07040026 0.22381935
000310 92 32 1e 3e b1 2d 1e bb db 3b ee bd 91 cb a0 bc
       0.15448979 -0.002413612 -0.1163251 -0.019628318
000320 a2 ab 3b bc 46 af 5c bc 46 38 51 3d cf f8 bf 3d
       -0.011454495 -0.013469523 0.051079057 0.09373628
000330 f9 1c d3 bc 54 09 1c bd da 92 0b 3e 67 d7 93 bc
       -0.025770651 -0.038094833 0.13630238 -0.018047048
000340 4f 29 79 bc 58 8a 3d bd 8b 57 07 3e ba 17 79 be
       -0.015207603 -0.046274513 0.13216989 -0.24325457
000350 64 6f bd 3b d8 8e ad 3d 77 46 b2 3d 44 45 4a 3e
       0.005781101 0.08474511 0.08704846 0.19752985
000360 64 99 aa bc 11 91 c9 3d 19 aa c9 3c 71 62 41 3d
       -0.020825095 0.09842122 0.024617242 0.04721302
000370 76 f4 c5 3d ba 05 f8 3d 2c a0 80 3d ab e4 10 3e
       0.09665768 0.12110467 0.0628055 0.1414973
000380 45 a2 51 3d 32 38 7b bd ed 60 31 3d ff b5 a1 bc
       0.051180143 -0.06133289 0.043305326 -0.019740103
000390 d9 9a 13 be cd cb 78 bd f4 7d 13 3d 2c 7e 74 3e
       -0.14414538 -0.060741235 0.03600879 0.23876256
0003a0 25 77 46 bc 2b 58 fd 3d ad fb 37 bd 20 ad 74 3e
       -0.012113367 0.12370332 -0.04491775 0.23894167
0003b0 d3 3b 5e bd a7 08 9c bd 53 9b 2b 3e 02 15 0c bc
       -0.05425627 -0.07618838 0.1675847 -0.0085499305
0003c0 3c 48 1f 3d 72 11 df bd 84 8d a2 3b cd c2 fa 3d
       0.038887247 -0.10891999 0.0049607176 0.122441866
0003d0 53 eb 18 be 7c d6 b3 3d 60 48 1e 3e b0 95 70 3e
       -0.14933519 0.08781144 0.15457296 0.23494601
0003e0 15 c7 66 3e 7c 97 c7 bd 41 29 aa bc 67 eb 6a bd
       0.22536881 -0.0974569 -0.020771625 -0.057353403
0003f0 44 08 73 bd 90 f6 81 bd ab 44 56 3d 9a f9 a1 3d
       -0.059334055 -0.06345856 0.05231158 0.07908936

network_body.linear_encoder.seq_layers.6.bias f4 [128]
000000 25 12 0c bd 56 44 65 bd c6 75 45 3d 9c 42 8b bb
       -0.03419699 -0.055973373 0.04820802 -0.004249884
000010 ad ec ca 3c 3d dd f2 3c bb 42 4b 3c 50 5a 2c ba
       0.024771059 0.02964651 0.0124060465 -0.0006574737
000020 ea 33 4c 3d 1d ed 41 bd b4 f0 14 3b 6e ee 43 bc
       0.049854197 -0.04734527 0.0022726478 -0.011958702
000030 38 8d 6a 3d 61 2d 9d bc a4 45 ce bc 5d 7c 5d ba
       0.057263583 -0.019186677 -0.025179692 -0.00084490125
000040 67 ca 0f 3c ec 72 b5 3b ad 2b c9 bc a1 8d c5 bc
       0.008776284 0.0055373814 -0.024556959 -0.024115385
000050 de 03 ed 3b cc f0 c7 3b f1 81 9b 3c 2d 4e 5a bd
       0.007233127 0.0061017033 0.01898286 -0.05329721
000060 9f 70 36 bd 73 ee 24 bd 93 91 6f bc ab bc 20 bd
       -0.044540998 -0.040266465 -0.01462211 -0.039242428
000070 b8 8c e2 bb 1d 04 6c bc 7c 27 83 bc 6e 4b 93 bb
       -0.0069137476 -0.014405278 -0.016010039 -0.004495076
000080 71 0d 1d bc d1 f2 9d bd 28 a9 20 3c 14 b2 07 bd
       -0.009585724 -0.07712329 0.009805955 -0.033128813
000090 1a 0d c9 bb 2b 3d 3c 3b ac 73 f9 39 c0 89 5b 3c
       -0.006135595 0.0028722982 0.00047579163 0.013399541
0000a0 a7 03 9d bc c6 b5 25 bc 9b d6 71 bd c0 11 87 bc
       -0.01916678 -0.010114139 -0.059042554 -0.016487956
0000b0 58 89 31 3d 31 3f 87 3a c9 0b 8b bd f1 ff 1a bd
       0.04334387 0.0010318515 -0.06789357 -0.03784174
0000c0 96 df 69 3c d1 2e 50 bc e0 44 f7 3c 5a f5 b6 bb
       0.014274498 -0.012706474 0.03018421 -0.0055834474
0000d0 ee db 25 bd c9 d7 5e 3b 02 37 d7 bc 4a 86 88 3c
       -0.040492944 0.003400313 -0.026271347 0.016665597
0000e0 9a e9 12 3b c8 35 f3 39 c7 06 95 3c d0 64 06 3d
       0.002241707 0.00046388642 0.018191708 0.032810986
0000f0 d7 a7 a7 3c ab 7f 47 3d 55 00 12 3d 89 e2 b4 bc
       0.020465774 0.048705738 0.035644848 -0.022080677
000100 02 42 f6 bc 5d 02 b2 3c 47 46 42 bb 90 c3 07 bd
       -0.030060772 0.021729643 -0.002964394 -0.033145487
000110 02 36 16 bd 26 3c dc 3b 2b f3 35 3b 35 7b 10 3d
       -0.0366726 0.0067210374 0.0027763348 0.03527375
000120 b6 e0 05 bb 83 00 dd 3b 3e fc 29 bc 98 98 47 bb
       -0.0020428128 0.006744446 -0.010375081 -0.0030455943
000130 29 46 61 bd 10 2d cc 3c 79 2a 8a bd 4d 7a 3e bd
       -0.05499855 0.024923831 -0.06746382 -0.046503354
000140 9f 96 4b bd 39 32 c6 3b 6e 90 a8 3c 9c bc b4 3c
       -0.04970419 0.0060484675 0.020576682 0.022062592
000150 1d 66 3a 3d e2 15 f7 3c c1 74 ee bb 7e 41 1c 3c
       0.04550754 0.030161802 -0.0072771017 0.009537099
000160 79 21 20 3c 14 61 9a 3c c9 d8 95 3b a0 34 63 bc
       0.0097736055 0.018845119 0.004572962 -0.013867527
000170 31 4c 86 bc 7c 6a f3 bc fd 20 bd b9 8e c5 4f bc
       -0.016393753 -0.029713862 -0.00036073467 -0.012681378
000180 91 7c 86 3c 6c 0c 2a 3d ba ab 62 bc ea 6f 38 bc
       0.01641682 0.041515753 -0.013834888 -0.011257151
000190 4c 05 c4 bb 2b 46 2a bd 5c f8 91 bc b9 6a f2 3b
       -0.0059820767 -0.041570824 -0.017818622 0.0073979762
0001a0 32 c6 59 3d 64 cf 2e 3b aa e8 2e 3c 82 b1 03 3d
       0.05316753 0.0026673907 0.010675589 0.032151707
0001b0 e0 37 5b 3c 47 8f 14 bb 51 3c 12 bd 97 7f 53 3c
       0.013380021 -0.0022668408 -0.035702053 0.012908838
0001c0 9c 76 55 bb 2c 05 89 3b 40 ef 34 bc e7 6a 30 3d
       -0.0032571917 0.0041815247 -0.01104337 0.0430707
0001d0 96 be ea 3c 6c 30 30 3a 8c 6a 88 bc ce cd 04 bc
       0.028655332 0.00067210826 -0.016652368 -0.008105708
0001e0 b1 26 1d 3d 7e bf 6a 3c 6a 53 d8 bc 70 44 f8 bc
       0.038366977 0.014327882 -0.026406962 -0.030306071
0001f0 da 1f 55 bc 3a cc f7 bc 2d 74 df 3c 70 0a 94 bc
       -0.013008082 -0.03024875 0.027277077 -0.018071383

network_body.linear_encoder.seq_layers.6.weight f4 [128, 128]
000000 7b 98 7b bd 58 58 42 bd 95 94 22 3e db 99 c3 bd
       -0.061424714 -0.047447532 0.15876992 -0.0955083
000010 da 59 7d bd 4f 97 b0 bd 91 27 ad bd a8 32 31 3d
       -0.061853267 -0.0862261 -0.08454812 0.0432612
000020 14 93 e2 bd 20 0b cd bd 1c c3 d9 bd 71 ab db bd
       -0.11063209 -0.100118876 -0.10632917 -0.10726059
000030 c1 95 c7 3c a0 bb d4 bd 46 b7 14 3d 05 f8 ba 3d
       0.0243634 -0.10387349 0.036307596 0.09129337
000040 c9 94 91 bd 2b c6 54 3d 18 4e 3a 3d 5a 34 0b 3d
       -0.07108457 0.0519468 0.045484632 0.033985473
000050 88 19 a7 3c 23 20 ad bd c0 4e 51 3c 4c ae 7c bd
       0.020397916 -0.08453395 0.012775123 -0.06168966
000060 56 d8 6b 3d eb 0a 95 bd ef 48 8e 3d a0 22 0b 3b
       0.05757936 -0.07277473 0.06947505 0.0021230355
000070 ba f3 24 bd c4 0e bc bc 14 09 a8 bc 03 33 18 bd
       -0.0402715 -0.02295626 -0.020512141 -0.037158024
000080 14 02 6f bd 70 61 17 bd ee c2 1d 3e 2c 61 2f 3d
       -0.05835159 -0.036958158 0.15406391 0.04281728
000090 3b 1a 97 bd 6e 3a 41 be 15 a8 5e bd 02 23 7b bc
       -0.0737805 -0.18869945 -0.054359514 -0.015328171
0000a0 da 3b 5c bb 69 17 27 bd 53 cf b5 3d 20 76 b0 3c
       -0.003360501 -0.04079381 0.088774346 0.021540701
0000b0 b5 5c d0 bd a1 9e 68 bc 7c 9f 40 3c cd 8a cd bd
       -0.101739325 -0.014197976 0.011756774 -0.1003624
0000c0 f0 a5 65 3d bd c0 fe bc 96 26 73 bd 2e 35 e8 bc
       0.056066453 -0.031097764 -0.05936297 -0.02834567
0000d0 e0 5f 63 3d c8 2a 8a 3d 2c 12 b0 bd 06 f3 1c bd
       0.055511355 0.06746441 -0.08597216 -0.038317703
0000e0 44 f2 4f 3b ab 13 8b 3c 66 19 26 3e 5b a9 f1 3d
       0.0031730095 0.016977152 0.16220626 0.1179988
0000f0 30 26 e6 bc de 44 bf bc 3b 6d ab 3b f3 b4 fe bd
       -0.028094381 -0.023348268 0.005231527 -0.12436857
000100 1b 04 a3 bd a9 9c 89 bd d8 ea a7 3d 86 59 54 3d
       -0.079597674 -0.06719334 0.0819909 0.05184319
000110 d5 e6 92 bd 23 56 a2 3d d0 a1 ba 3d 1b 67 99 bc
       -0.07172934 0.079265855 0.091128945 -0.018725922
000120 81 6f b3 bd 39 1b 1b be 38 2a 5d bd 7d aa ad bd
       -0.08761502 -0.15147103 -0.05399534 -0.08479784
000130 e1 2c 88 3d be d2 dc bc 30 5a 1f 3e 73 a1 b4 bd
       0.06649185 -0.026955958 0.15561748 -0.088198565
000140 1c c6 97 bd 6d c9 28 3d f6 e7 1d be 6c ee 93 bd
       -0.07410833 0.04120772 -0.15420517 -0.0722321
000150 82 37 0d bd 11 de 81 3c 5a e8 39 3c 95 8c 0f be
       -0.034476765 0.01585296 0.011346901 -0.14018472
000160 42 d5 05 bd b6 a1 c1 3d af d6 cc bb 56 49 cd bc
       -0.03267408 0.09454672 -0.006251178 -0.025059383
000170 00 6c 0c be ca c0 9a 3d 9b c1 0b bd 11 6d ce 3d
       -0.13713074 0.07556303 -0.034120183 0.100793965
000180 70 00 d0 bb ce 4f e0 bc ba 00 ac 3d 79 b7 8d be
       -0.0063477084 -0.027381804 0.08398576 -0.2767904
000190 f6 f2 b3 bb b5 dd 4d 3d 2e 7c 2b 3d aa 25 16 bd
       -0.0054916097 0.050260264 0.041866474 -0.036657013
0001a0 04 69 b9 3d 19 f6 36 bb ac 9e 84 bd 6b 1e ac 3c
       0.09053233 -0.0027917682 -0.06475577 0.021010598
0001b0 61 a7 15 be 76 72 8f 3d 89 73 83 bd 05 73 50 3c
       -0.14614631 0.070042536 -0.06418521 0.012722735
0001c0 f2 1d 76 bd 20 01 f3 3c ba 90 ef 3d e6 74 10 bd
       -0.06008715 0.029663622 0.11697526 -0.035267733
0001d0 60 b7 04 3e a7 ac 43 bc 88 3b 79 3d 62 e4 d9 bd
       0.12960577 -0.011943019 0.06084779 -0.10639264
0001e0 15 f7 b1 3c 08 a8 89 3d fd 27 c3 3d 55 31 f1 bc
       0.021724263 0.067215025 0.095291115 -0.029442469
0001f0 28 4e 68 3d 60 32 ff bd f6 94 9d 3d ad 48 78 bc
       0.05671516 -0.1246078 0.07694428 -0.015154046
000200 92 40 2d 3d bf f2 da bd 73 c7 64 3d f9 b4 0a bd
       0.042297907 -0.106908314 0.055854272 -0.033863995
000210 48 f6 0a be 20 da 08 be 73 98 bf 3d d5 6f 87 3d
       -0.13570511 -0.13364458 0.09355249 0.06613127
000220 9c a0 25 3d ac e8 bd 3d ac 53 19 be 1a a3 ba 3d
       0.040436372 0.09272894 -0.14973325 0.091131404
000230 1d a1 f0 3d ef 54 a9 3d e6 47 b9 3d 8a ff 26 be
       0.1174948 0.08268153 0.09046917 -0.16308418
000240 0a 11 c6 3d b2 27 85 3d fd 16 03 be eb 56 95 bd
       0.09671219 0.06501712 -0.12801738 -0.07291969
000250 cc 03 83 bd 09 a3 72 3b 13 97 03 be 88 20 16 3e
       -0.063972086 0.0037023446 -0.12850599 0.14660847
000260 6f ee 94 bd ce 36 41 bc 64 67 1c bd f2 6b 5d 3e
       -0.0727204 -0.011792852 -0.03818454 0.21623209
000270 de 95 b0 bd e6 ad de 3d 06 fc 1d 3e de 81 b8 3d
       -0.08622335 0.10873012 0.1542817 0.09009145
000280 f8 45 08 3d e1 52 08 bc 43 b7 a8 3d e5 ae 1c 3e
       0.033269852 -0.008320541 0.082380794 0.15301092
000290 a1 48 16 be 9e da 22 bd 3b ae a3 bb 9f 7b 12 be
       -0.14676143 -0.03975927 -0.004995135 -0.1430497
0002a0 2b 02 11 3d 9b db 9d 3d 2c f3 53 be 66 03 67 3e
       0.03540246 0.07707902 -0.20698231 0.2255989
0002b0 dc 8c 1f bd b9 ca 3c 3e 3d 63 14 bd ef 16 e6 3d
       -0.038952693 0.18436708 -0.036227454 0.11234843
0002c0 6c 68 da 3c 60 5f cb 3c 82 9e 1d be 6d 57 6d be
       0.02666112 0.024825752 -0.15392497 -0.23177882
0002d0 1c 96 97 3d 1a 24 26 bb 7f f4 d9 bc 00 13 ad bd
       0.07401678 -0.0025351108 -0.026605843 -0.084508896
0002e0 6c b2 40 bd 2a f4 7f 3c 6d ef 4c bd 90 2c d6 3d
       -0.047045156 0.015622178 -0.05003302 0.10457718
0002f0 15 cd 27 3e df 20 a2 3d 78 89 13 3d e2 25 71 3d
       0.16386826 0.07916426 0.036019772 0.05887402
000300 db c6 ba 3c 18 df 89 3b 2e b5 b1 bd 25 09 7e 3b
       0.0227999 0.004207503 -0.086771354 0.0038762775
000310 2b 29 9a bb 93 b8 d8 bc 0f b5 8e 3c d8 b9 cb bd
       -0.0047046146 -0.0264552 0.01742032 -0.09947556
000320 e9 76 3c 3e 5a 84 1a 3e d6 c7 7b bd a1 b8 a1 3d
       0.18404736 0.1508955 -0.061469875 0.07896543
000330 9f 23 3e bc 7d 3e b4 bc db da f5 bd fe fd ad bd
       -0.011605172 -0.022002453 -0.12004634 -0.08495711
000340 7d 1c f9 bc b5 33 eb bd f5 e9 b1 bd c0 e5 cb 3c
       -0.030409092 -0.11484472 -0.08687202 0.024889827
000350 ee 17 87 bc 4f 0c 34 be 48 91 ac bd 17 2e be bd
       -0.016490903 -0.1758282 -0.08426148 -0.09286135
000360 f6 d1 38 3e e0 98 ee bd 74 37 26 bc dc 6e 57 bd
       0.18048844 -0.11650252 -0.010145057 -0.052595958
000370 19 2c 82 bd bc cd d1 3d db 70 c3 bb b8 c6 06 3e
       -0.06356067 0.10244319 -0.005964381 0.13161743
000380 38 90 f6 bb 60 64 f8 bd 52 c1 b2 bd 0f e1 42 3c
       -0.0075245164 -0.1212852 -0.08728279 0.011894478
000390 ec 0b 76 3c 9d a1 10 be b2 4b e3 3b 91 9b f7 3d
       0.015017491 -0.1412415 0.006936514 0.12090219
0003a0 89 93 a7 bc 20 9a f8 bd 5a 09 20 bd 02 69 a4 3d
       -0.020456092 -0.12138772 -0.03907142 0.08027841
0003b0 87 a5 47 bd 39 ae 24 bd 29 51 ea 3d 3d 03 03 bb
       -0.048741844 -0.040205214 0.11441261 -0.0019990944
0003c0 b8 5c 06 be 9d 48 ad 3d 61 90 af 3d f7 ad ee bc
       -0.13121307 0.084611155 0.0857246 -0.029135687
0003d0 b4 ff 0f be 7f a1 56 be ea 6f f3 bb 89 21 82 bd
       -0.14062387 -0.20960043 -0.0074291127 -0.063540526
0003e0 04 48 e5 3d 1b b3 d8 3c a5 82 98 3d c6 2d 26 bc
       0.111953765 0.026452592 0.074467935 -0.010142749
0003f0 a8 6a 8d 3d 76 e0 df bd 36 a0 9d 3d 5a 1c 8b bb
       0.06905109 -0.109314844 0.076965734 -0.004245323
